…
Copying 40 validation images of Whole-Half-Rest...
Copying 40 test images of Whole-Half-Rest...
Copying 320 training images of Whole-Note...
Copying 40 validation images of Whole-Note...
Copying 40 test images of Whole-Note...
Training on dataset...
Found 12170 images belonging to 32 classes.
Found 1515 images belonging to 32 classes.
Found 1515 images belonging to 32 classes.
_________________________________________________________________
Layer (type)                 Output Shape              Param #   
=================================================================
conv2d_1 (Conv2D)            (None, 244, 128, 16)      448       
_________________________________________________________________
batch_normalization_1 (Batch (None, 244, 128, 16)      64        
_________________________________________________________________
activation_1 (Activation)    (None, 244, 128, 16)      0         
_________________________________________________________________
conv2d_2 (Conv2D)            (None, 244, 128, 16)      2320      
_________________________________________________________________
batch_normalization_2 (Batch (None, 244, 128, 16)      64        
_________________________________________________________________
activation_2 (Activation)    (None, 244, 128, 16)      0         
_________________________________________________________________
max_pooling2d_1 (MaxPooling2 (None, 122, 64, 16)       0         
_________________________________________________________________
conv2d_3 (Conv2D)            (None, 122, 64, 32)       4640      
_________________________________________________________________
batch_normalization_3 (Batch (None, 122, 64, 32)       128       
_________________________________________________________________
activation_3 (Activation)    (None, 122, 64, 32)       0         
_________________________________________________________________
conv2d_4 (Conv2D)            (None, 122, 64, 32)       9248      
_________________________________________________________________
batch_normalization_4 (Batch (None, 122, 64, 32)       128       
_________________________________________________________________
activation_4 (Activation)    (None, 122, 64, 32)       0         
_________________________________________________________________
max_pooling2d_2 (MaxPooling2 (None, 61, 32, 32)        0         
_________________________________________________________________
conv2d_5 (Conv2D)            (None, 61, 32, 64)        18496     
_________________________________________________________________
batch_normalization_5 (Batch (None, 61, 32, 64)        256       
_________________________________________________________________
activation_5 (Activation)    (None, 61, 32, 64)        0         
_________________________________________________________________
conv2d_6 (Conv2D)            (None, 61, 32, 64)        36928     
_________________________________________________________________
batch_normalization_6 (Batch (None, 61, 32, 64)        256       
_________________________________________________________________
activation_6 (Activation)    (None, 61, 32, 64)        0         
_________________________________________________________________
conv2d_7 (Conv2D)            (None, 61, 32, 64)        36928     
_________________________________________________________________
batch_normalization_7 (Batch (None, 61, 32, 64)        256       
_________________________________________________________________
activation_7 (Activation)    (None, 61, 32, 64)        0         
_________________________________________________________________
max_pooling2d_3 (MaxPooling2 (None, 30, 16, 64)        0         
_________________________________________________________________
conv2d_8 (Conv2D)            (None, 30, 16, 128)       73856     
_________________________________________________________________
batch_normalization_8 (Batch (None, 30, 16, 128)       512       
_________________________________________________________________
activation_8 (Activation)    (None, 30, 16, 128)       0         
_________________________________________________________________
conv2d_9 (Conv2D)            (None, 30, 16, 128)       147584    
_________________________________________________________________
batch_normalization_9 (Batch (None, 30, 16, 128)       512       
_________________________________________________________________
activation_9 (Activation)    (None, 30, 16, 128)       0         
_________________________________________________________________
conv2d_10 (Conv2D)           (None, 30, 16, 128)       147584    
_________________________________________________________________
batch_normalization_10 (Batc (None, 30, 16, 128)       512       
_________________________________________________________________
activation_10 (Activation)   (None, 30, 16, 128)       0         
_________________________________________________________________
max_pooling2d_4 (MaxPooling2 (None, 15, 8, 128)        0         
_________________________________________________________________
conv2d_11 (Conv2D)           (None, 15, 8, 192)        221376    
_________________________________________________________________
batch_normalization_11 (Batc (None, 15, 8, 192)        768       
_________________________________________________________________
activation_11 (Activation)   (None, 15, 8, 192)        0         
_________________________________________________________________
conv2d_12 (Conv2D)           (None, 15, 8, 192)        331968    
_________________________________________________________________
batch_normalization_12 (Batc (None, 15, 8, 192)        768       
_________________________________________________________________
activation_12 (Activation)   (None, 15, 8, 192)        0         
_________________________________________________________________
conv2d_13 (Conv2D)           (None, 15, 8, 192)        331968    
_________________________________________________________________
batch_normalization_13 (Batc (None, 15, 8, 192)        768       
_________________________________________________________________
activation_13 (Activation)   (None, 15, 8, 192)        0         
_________________________________________________________________
conv2d_14 (Conv2D)           (None, 15, 8, 192)        331968    
_________________________________________________________________
batch_normalization_14 (Batc (None, 15, 8, 192)        768       
_________________________________________________________________
activation_14 (Activation)   (None, 15, 8, 192)        0         
_________________________________________________________________
max_pooling2d_5 (MaxPooling2 (None, 7, 4, 192)         0         
_________________________________________________________________
flatten_1 (Flatten)          (None, 5376)              0         
_________________________________________________________________
dropout_1 (Dropout)          (None, 5376)              0         
_________________________________________________________________
dense_1 (Dense)              (None, 32)                172064    
_________________________________________________________________
output_node (Activation)     (None, 32)                0         
=================================================================
Total params: 1,873,136
Trainable params: 1,870,256
Non-trainable params: 2,880
_________________________________________________________________
Model vgg loaded.
Training for 200 epochs with initial learning rate of 0.001, weight-decay of 0.0001 and Nesterov Momentum of 0.9 ...
Additional parameters: Initialization: he_normal, Minibatch-size: 16, Early stopping after 10 epochs without improvement
…
