…
Copying 320 training files of Whole-Note...
Copying 40 validation files of Whole-Note...
Copying 40 test files of Whole-Note...
Loading configuration and data-readers...
Found 12170 images belonging to 32 classes.
Found 1515 images belonging to 32 classes.
Found 1515 images belonging to 32 classes.
____________________________________________________________________________________________________
Layer (type)                     Output Shape          Param #     Connected to
====================================================================================================
input_1 (InputLayer)             (None, 24, 24, 3)     0
____________________________________________________________________________________________________
conv1 (Conv2D)                   (None, 12, 12, 32)    4736        input_1[0][0]
____________________________________________________________________________________________________
batch_normalization_1 (BatchNorm (None, 12, 12, 32)    128         conv1[0][0]
____________________________________________________________________________________________________
activation_1 (Activation)        (None, 12, 12, 32)    0           batch_normalization_1[0][0]
____________________________________________________________________________________________________
max_pooling2d_1 (MaxPooling2D)   (None, 6, 6, 32)      0           activation_1[0][0]
____________________________________________________________________________________________________
conv2_1_a (Conv2D)               (None, 3, 3, 32)      9248        max_pooling2d_1[0][0]
____________________________________________________________________________________________________
batch_normalization_2 (BatchNorm (None, 3, 3, 32)      128         conv2_1_a[0][0]
____________________________________________________________________________________________________
activation_2 (Activation)        (None, 3, 3, 32)      0           batch_normalization_2[0][0]
____________________________________________________________________________________________________
conv2_1_b (Conv2D)               (None, 3, 3, 32)      9248        activation_2[0][0]
____________________________________________________________________________________________________
batch_normalization_3 (BatchNorm (None, 3, 3, 32)      128         conv2_1_b[0][0]
____________________________________________________________________________________________________
activation_3 (Activation)        (None, 3, 3, 32)      0           batch_normalization_3[0][0]
____________________________________________________________________________________________________
conv2_1_shortcut (Conv2D)        (None, 3, 3, 32)      1056        max_pooling2d_1[0][0]
____________________________________________________________________________________________________
add_1 (Add)                      (None, 3, 3, 32)      0           activation_3[0][0]
                                                                   conv2_1_shortcut[0][0]
____________________________________________________________________________________________________
conv2_2_a (Conv2D)               (None, 3, 3, 32)      9248        add_1[0][0]
____________________________________________________________________________________________________
batch_normalization_4 (BatchNorm (None, 3, 3, 32)      128         conv2_2_a[0][0]
____________________________________________________________________________________________________
activation_4 (Activation)        (None, 3, 3, 32)      0           batch_normalization_4[0][0]
____________________________________________________________________________________________________
conv2_2_b (Conv2D)               (None, 3, 3, 32)      9248        activation_4[0][0]
____________________________________________________________________________________________________
batch_normalization_5 (BatchNorm (None, 3, 3, 32)      128         conv2_2_b[0][0]
____________________________________________________________________________________________________
activation_5 (Activation)        (None, 3, 3, 32)      0           batch_normalization_5[0][0]
____________________________________________________________________________________________________
add_2 (Add)                      (None, 3, 3, 32)      0           activation_5[0][0]
                                                                   add_1[0][0]
____________________________________________________________________________________________________
conv3_1_a (Conv2D)               (None, 2, 2, 64)      18496       add_2[0][0]
____________________________________________________________________________________________________
batch_normalization_6 (BatchNorm (None, 2, 2, 64)      256         conv3_1_a[0][0]
____________________________________________________________________________________________________
activation_6 (Activation)        (None, 2, 2, 64)      0           batch_normalization_6[0][0]
____________________________________________________________________________________________________
conv3_1_b (Conv2D)               (None, 2, 2, 64)      36928       activation_6[0][0]
____________________________________________________________________________________________________
batch_normalization_7 (BatchNorm (None, 2, 2, 64)      256         conv3_1_b[0][0]
____________________________________________________________________________________________________
activation_7 (Activation)        (None, 2, 2, 64)      0           batch_normalization_7[0][0]
____________________________________________________________________________________________________
conv3_1_shortcut (Conv2D)        (None, 2, 2, 64)      2112        add_2[0][0]
____________________________________________________________________________________________________
add_3 (Add)                      (None, 2, 2, 64)      0           activation_7[0][0]
                                                                   conv3_1_shortcut[0][0]
____________________________________________________________________________________________________
conv3_2_a (Conv2D)               (None, 2, 2, 64)      36928       add_3[0][0]
____________________________________________________________________________________________________
batch_normalization_8 (BatchNorm (None, 2, 2, 64)      256         conv3_2_a[0][0]
____________________________________________________________________________________________________
activation_8 (Activation)        (None, 2, 2, 64)      0           batch_normalization_8[0][0]
____________________________________________________________________________________________________
conv3_2_b (Conv2D)               (None, 2, 2, 64)      36928       activation_8[0][0]
____________________________________________________________________________________________________
batch_normalization_9 (BatchNorm (None, 2, 2, 64)      256         conv3_2_b[0][0]
____________________________________________________________________________________________________
activation_9 (Activation)        (None, 2, 2, 64)      0           batch_normalization_9[0][0]
____________________________________________________________________________________________________
add_4 (Add)                      (None, 2, 2, 64)      0           activation_9[0][0]
                                                                   add_3[0][0]
____________________________________________________________________________________________________
conv4_1_a (Conv2D)               (None, 1, 1, 128)     73856       add_4[0][0]
____________________________________________________________________________________________________
batch_normalization_10 (BatchNor (None, 1, 1, 128)     512         conv4_1_a[0][0]
____________________________________________________________________________________________________
activation_10 (Activation)       (None, 1, 1, 128)     0           batch_normalization_10[0][0]
____________________________________________________________________________________________________
conv4_1_b (Conv2D)               (None, 1, 1, 128)     147584      activation_10[0][0]
____________________________________________________________________________________________________
batch_normalization_11 (BatchNor (None, 1, 1, 128)     512         conv4_1_b[0][0]
____________________________________________________________________________________________________
activation_11 (Activation)       (None, 1, 1, 128)     0           batch_normalization_11[0][0]
____________________________________________________________________________________________________
conv4_1_shortcut (Conv2D)        (None, 1, 1, 128)     8320        add_4[0][0]
____________________________________________________________________________________________________
add_5 (Add)                      (None, 1, 1, 128)     0           activation_11[0][0]
                                                                   conv4_1_shortcut[0][0]
____________________________________________________________________________________________________
conv4_2_a (Conv2D)               (None, 1, 1, 128)     147584      add_5[0][0]
____________________________________________________________________________________________________
batch_normalization_12 (BatchNor (None, 1, 1, 128)     512         conv4_2_a[0][0]
____________________________________________________________________________________________________
activation_12 (Activation)       (None, 1, 1, 128)     0           batch_normalization_12[0][0]
____________________________________________________________________________________________________
conv4_2_b (Conv2D)               (None, 1, 1, 128)     147584      activation_12[0][0]
____________________________________________________________________________________________________
batch_normalization_13 (BatchNor (None, 1, 1, 128)     512         conv4_2_b[0][0]
____________________________________________________________________________________________________
activation_13 (Activation)       (None, 1, 1, 128)     0           batch_normalization_13[0][0]
____________________________________________________________________________________________________
add_6 (Add)                      (None, 1, 1, 128)     0           activation_13[0][0]
                                                                   add_5[0][0]
____________________________________________________________________________________________________
conv4_3_a (Conv2D)               (None, 1, 1, 128)     147584      add_6[0][0]
____________________________________________________________________________________________________
batch_normalization_14 (BatchNor (None, 1, 1, 128)     512         conv4_3_a[0][0]
____________________________________________________________________________________________________
activation_14 (Activation)       (None, 1, 1, 128)     0           batch_normalization_14[0][0]
____________________________________________________________________________________________________
conv4_3_b (Conv2D)               (None, 1, 1, 128)     147584      activation_14[0][0]
____________________________________________________________________________________________________
batch_normalization_15 (BatchNor (None, 1, 1, 128)     512         conv4_3_b[0][0]
____________________________________________________________________________________________________
activation_15 (Activation)       (None, 1, 1, 128)     0           batch_normalization_15[0][0]
____________________________________________________________________________________________________
add_7 (Add)                      (None, 1, 1, 128)     0           activation_15[0][0]
                                                                   add_6[0][0]
____________________________________________________________________________________________________
flatten_1 (Flatten)              (None, 128)           0           add_7[0][0]
____________________________________________________________________________________________________
output_class (Dense)             (None, 32)            4128        flatten_1[0][0]
====================================================================================================
Total params: 1,003,136
Trainable params: 1,000,768
Non-trainable params: 2,368
____________________________________________________________________________________________________
Model res_net_2_reduced loaded.
2017-07-13 18:12:16.170503: W c:\tf_jenkins\home\workspace\release-win\device\gpu\os\windows\tensorflow\core\platform\cpu_feature_guard.cc:45] The TensorFlow lib
…
