…
Copying 320 training files of Whole-Half-Rest...
Copying 40 validation files of Whole-Half-Rest...
Copying 40 test files of Whole-Half-Rest...
Copying 320 training files of Whole-Note...
Copying 40 validation files of Whole-Note...
Copying 40 test files of Whole-Note...
Training on dataset...
Found 12170 images belonging to 32 classes.
Found 1515 images belonging to 32 classes.
Found 1515 images belonging to 32 classes.
_________________________________________________________________
Layer (type)                 Output Shape              Param #
=================================================================
conv2d_1 (Conv2D)            (None, 96, 192, 32)       896
_________________________________________________________________
batch_normalization_1 (Batch (None, 96, 192, 32)       128
_________________________________________________________________
activation_1 (Activation)    (None, 96, 192, 32)       0
_________________________________________________________________
conv2d_2 (Conv2D)            (None, 96, 192, 32)       9248
_________________________________________________________________
batch_normalization_2 (Batch (None, 96, 192, 32)       128
_________________________________________________________________
activation_2 (Activation)    (None, 96, 192, 32)       0
_________________________________________________________________
max_pooling2d_1 (MaxPooling2 (None, 48, 96, 32)        0
_________________________________________________________________
conv2d_3 (Conv2D)            (None, 48, 96, 64)        18496
_________________________________________________________________
batch_normalization_3 (Batch (None, 48, 96, 64)        256
_________________________________________________________________
activation_3 (Activation)    (None, 48, 96, 64)        0
_________________________________________________________________
conv2d_4 (Conv2D)            (None, 48, 96, 64)        36928
_________________________________________________________________
batch_normalization_4 (Batch (None, 48, 96, 64)        256
_________________________________________________________________
activation_4 (Activation)    (None, 48, 96, 64)        0
_________________________________________________________________
max_pooling2d_2 (MaxPooling2 (None, 24, 48, 64)        0
_________________________________________________________________
conv2d_5 (Conv2D)            (None, 24, 48, 128)       73856
_________________________________________________________________
batch_normalization_5 (Batch (None, 24, 48, 128)       512
_________________________________________________________________
activation_5 (Activation)    (None, 24, 48, 128)       0
_________________________________________________________________
conv2d_6 (Conv2D)            (None, 24, 48, 128)       147584
_________________________________________________________________
batch_normalization_6 (Batch (None, 24, 48, 128)       512
_________________________________________________________________
activation_6 (Activation)    (None, 24, 48, 128)       0
_________________________________________________________________
conv2d_7 (Conv2D)            (None, 24, 48, 128)       147584
_________________________________________________________________
batch_normalization_7 (Batch (None, 24, 48, 128)       512
_________________________________________________________________
activation_7 (Activation)    (None, 24, 48, 128)       0
_________________________________________________________________
max_pooling2d_3 (MaxPooling2 (None, 12, 24, 128)       0
_________________________________________________________________
conv2d_8 (Conv2D)            (None, 12, 24, 256)       295168
_________________________________________________________________
batch_normalization_8 (Batch (None, 12, 24, 256)       1024
_________________________________________________________________
activation_8 (Activation)    (None, 12, 24, 256)       0
_________________________________________________________________
conv2d_9 (Conv2D)            (None, 12, 24, 256)       590080
_________________________________________________________________
batch_normalization_9 (Batch (None, 12, 24, 256)       1024
_________________________________________________________________
activation_9 (Activation)    (None, 12, 24, 256)       0
_________________________________________________________________
conv2d_10 (Conv2D)           (None, 12, 24, 256)       590080
_________________________________________________________________
batch_normalization_10 (Batc (None, 12, 24, 256)       1024
_________________________________________________________________
activation_10 (Activation)   (None, 12, 24, 256)       0
_________________________________________________________________
max_pooling2d_4 (MaxPooling2 (None, 6, 12, 256)        0
_________________________________________________________________
conv2d_11 (Conv2D)           (None, 6, 12, 512)        1180160
_________________________________________________________________
batch_normalization_11 (Batc (None, 6, 12, 512)        2048
_________________________________________________________________
activation_11 (Activation)   (None, 6, 12, 512)        0
_________________________________________________________________
conv2d_12 (Conv2D)           (None, 6, 12, 512)        2359808
_________________________________________________________________
batch_normalization_12 (Batc (None, 6, 12, 512)        2048
_________________________________________________________________
activation_12 (Activation)   (None, 6, 12, 512)        0
_________________________________________________________________
conv2d_13 (Conv2D)           (None, 6, 12, 512)        2359808
_________________________________________________________________
batch_normalization_13 (Batc (None, 6, 12, 512)        2048
_________________________________________________________________
activation_13 (Activation)   (None, 6, 12, 512)        0
_________________________________________________________________
average_pooling2d_1 (Average (None, 3, 6, 512)         0
_________________________________________________________________
flatten_1 (Flatten)          (None, 9216)              0
_________________________________________________________________
dense_1 (Dense)              (None, 32)                294944
_________________________________________________________________
output_node (Activation)     (None, 32)                0
=================================================================
Total params: 8,116,160
Trainable params: 8,110,400
Non-trainable params: 5,760
_________________________________________________________________
Model vgg4 loaded.
2017-06-07 03:16:09.654346: W c:\tf_jenkins\home\workspace\release-win\device\gpu\os\windows\tensorflow\core\platform\cpu_feature_guard.cc:45] Th
e TensorFlow library wasn't compiled to use SSE instructions, but these are available on your machine and could speed up CPU computations.
…
