…
Copying 97 validation files of Whole-Half-Rest...
Copying 97 test files of Whole-Half-Rest...
Copying 1867 training files of Whole-Note...
Copying 233 validation files of Whole-Note...
Copying 233 test files of Whole-Note...
Loading configuration and data-readers...
Found 69229 images belonging to 79 classes.
Found 8615 images belonging to 79 classes.
Found 8615 images belonging to 79 classes.
_________________________________________________________________
Layer (type)                 Output Shape              Param #
=================================================================
conv2d_1 (Conv2D)            (None, 96, 96, 16)        448
_________________________________________________________________
batch_normalization_1 (Batch (None, 96, 96, 16)        64
_________________________________________________________________
activation_1 (Activation)    (None, 96, 96, 16)        0
_________________________________________________________________
conv2d_2 (Conv2D)            (None, 96, 96, 16)        2320
_________________________________________________________________
batch_normalization_2 (Batch (None, 96, 96, 16)        64
_________________________________________________________________
activation_2 (Activation)    (None, 96, 96, 16)        0
_________________________________________________________________
max_pooling2d_1 (MaxPooling2 (None, 48, 48, 16)        0
_________________________________________________________________
conv2d_3 (Conv2D)            (None, 48, 48, 32)        4640
_________________________________________________________________
batch_normalization_3 (Batch (None, 48, 48, 32)        128
_________________________________________________________________
activation_3 (Activation)    (None, 48, 48, 32)        0
_________________________________________________________________
conv2d_4 (Conv2D)            (None, 48, 48, 32)        9248
_________________________________________________________________
batch_normalization_4 (Batch (None, 48, 48, 32)        128
_________________________________________________________________
activation_4 (Activation)    (None, 48, 48, 32)        0
_________________________________________________________________
max_pooling2d_2 (MaxPooling2 (None, 24, 24, 32)        0
_________________________________________________________________
conv2d_5 (Conv2D)            (None, 24, 24, 64)        18496
_________________________________________________________________
batch_normalization_5 (Batch (None, 24, 24, 64)        256
_________________________________________________________________
activation_5 (Activation)    (None, 24, 24, 64)        0
_________________________________________________________________
conv2d_6 (Conv2D)            (None, 24, 24, 64)        36928
_________________________________________________________________
batch_normalization_6 (Batch (None, 24, 24, 64)        256
_________________________________________________________________
activation_6 (Activation)    (None, 24, 24, 64)        0
_________________________________________________________________
conv2d_7 (Conv2D)            (None, 24, 24, 64)        36928
_________________________________________________________________
batch_normalization_7 (Batch (None, 24, 24, 64)        256
_________________________________________________________________
activation_7 (Activation)    (None, 24, 24, 64)        0
_________________________________________________________________
max_pooling2d_3 (MaxPooling2 (None, 12, 12, 64)        0
_________________________________________________________________
conv2d_8 (Conv2D)            (None, 12, 12, 128)       73856
_________________________________________________________________
batch_normalization_8 (Batch (None, 12, 12, 128)       512
_________________________________________________________________
activation_8 (Activation)    (None, 12, 12, 128)       0
_________________________________________________________________
conv2d_9 (Conv2D)            (None, 12, 12, 128)       147584
_________________________________________________________________
batch_normalization_9 (Batch (None, 12, 12, 128)       512
_________________________________________________________________
activation_9 (Activation)    (None, 12, 12, 128)       0
_________________________________________________________________
conv2d_10 (Conv2D)           (None, 12, 12, 128)       147584
_________________________________________________________________
batch_normalization_10 (Batc (None, 12, 12, 128)       512
_________________________________________________________________
activation_10 (Activation)   (None, 12, 12, 128)       0
_________________________________________________________________
max_pooling2d_4 (MaxPooling2 (None, 6, 6, 128)         0
_________________________________________________________________
conv2d_11 (Conv2D)           (None, 6, 6, 192)         221376
_________________________________________________________________
batch_normalization_11 (Batc (None, 6, 6, 192)         768
_________________________________________________________________
activation_11 (Activation)   (None, 6, 6, 192)         0
_________________________________________________________________
conv2d_12 (Conv2D)           (None, 6, 6, 192)         331968
_________________________________________________________________
batch_normalization_12 (Batc (None, 6, 6, 192)         768
_________________________________________________________________
activation_12 (Activation)   (None, 6, 6, 192)         0
_________________________________________________________________
conv2d_13 (Conv2D)           (None, 6, 6, 192)         331968
_________________________________________________________________
batch_normalization_13 (Batc (None, 6, 6, 192)         768
_________________________________________________________________
activation_13 (Activation)   (None, 6, 6, 192)         0
_________________________________________________________________
conv2d_14 (Conv2D)           (None, 6, 6, 192)         331968
_________________________________________________________________
batch_normalization_14 (Batc (None, 6, 6, 192)         768
_________________________________________________________________
activation_14 (Activation)   (None, 6, 6, 192)         0
_________________________________________________________________
max_pooling2d_5 (MaxPooling2 (None, 3, 3, 192)         0
_________________________________________________________________
flatten_1 (Flatten)          (None, 1728)              0
_________________________________________________________________
output_class (Dense)         (None, 79)                136591
=================================================================
Total params: 1,837,663
Trainable params: 1,834,783
Non-trainable params: 2,880
_________________________________________________________________
Model vgg loaded.
2017-07-27 00:29:53.249630: W c:\tf_jenkins\home\workspace\release-win\m\windows-gpu\py\35\tensorflow\core\platform\cpu_feature_guard.cc:45] The TensorFlow library wa
sn't compiled to use SSE instructions, but these are available on your machine and could speed up CPU computations.
…
