…
Copying 40 validation files of Whole-Half-Rest...
Copying 40 test files of Whole-Half-Rest...
Copying 320 training files of Whole-Note...
Copying 40 validation files of Whole-Note...
Copying 40 test files of Whole-Note...
Loading configuration and data-readers...
Found 12170 images belonging to 32 classes.
Found 1515 images belonging to 32 classes.
Found 1515 images belonging to 32 classes.
_________________________________________________________________
Layer (type)                 Output Shape              Param #
=================================================================
conv2d_1 (Conv2D)            (None, 24, 24, 16)        448
_________________________________________________________________
batch_normalization_1 (Batch (None, 24, 24, 16)        64
_________________________________________________________________
activation_1 (Activation)    (None, 24, 24, 16)        0
_________________________________________________________________
conv2d_2 (Conv2D)            (None, 24, 24, 16)        2320
_________________________________________________________________
batch_normalization_2 (Batch (None, 24, 24, 16)        64
_________________________________________________________________
activation_2 (Activation)    (None, 24, 24, 16)        0
_________________________________________________________________
max_pooling2d_1 (MaxPooling2 (None, 12, 12, 16)        0
_________________________________________________________________
conv2d_3 (Conv2D)            (None, 12, 12, 32)        4640
_________________________________________________________________
batch_normalization_3 (Batch (None, 12, 12, 32)        128
_________________________________________________________________
activation_3 (Activation)    (None, 12, 12, 32)        0
_________________________________________________________________
conv2d_4 (Conv2D)            (None, 12, 12, 32)        9248
_________________________________________________________________
batch_normalization_4 (Batch (None, 12, 12, 32)        128
_________________________________________________________________
activation_4 (Activation)    (None, 12, 12, 32)        0
_________________________________________________________________
max_pooling2d_2 (MaxPooling2 (None, 6, 6, 32)          0
_________________________________________________________________
conv2d_5 (Conv2D)            (None, 6, 6, 64)          18496
_________________________________________________________________
batch_normalization_5 (Batch (None, 6, 6, 64)          256
_________________________________________________________________
activation_5 (Activation)    (None, 6, 6, 64)          0
_________________________________________________________________
conv2d_6 (Conv2D)            (None, 6, 6, 64)          36928
_________________________________________________________________
batch_normalization_6 (Batch (None, 6, 6, 64)          256
_________________________________________________________________
activation_6 (Activation)    (None, 6, 6, 64)          0
_________________________________________________________________
conv2d_7 (Conv2D)            (None, 6, 6, 64)          36928
_________________________________________________________________
batch_normalization_7 (Batch (None, 6, 6, 64)          256
_________________________________________________________________
activation_7 (Activation)    (None, 6, 6, 64)          0
_________________________________________________________________
max_pooling2d_3 (MaxPooling2 (None, 3, 3, 64)          0
_________________________________________________________________
conv2d_8 (Conv2D)            (None, 3, 3, 128)         73856
_________________________________________________________________
batch_normalization_8 (Batch (None, 3, 3, 128)         512
_________________________________________________________________
activation_8 (Activation)    (None, 3, 3, 128)         0
_________________________________________________________________
conv2d_9 (Conv2D)            (None, 3, 3, 128)         147584
_________________________________________________________________
batch_normalization_9 (Batch (None, 3, 3, 128)         512
_________________________________________________________________
activation_9 (Activation)    (None, 3, 3, 128)         0
_________________________________________________________________
conv2d_10 (Conv2D)           (None, 3, 3, 128)         147584
_________________________________________________________________
batch_normalization_10 (Batc (None, 3, 3, 128)         512
_________________________________________________________________
activation_10 (Activation)   (None, 3, 3, 128)         0
_________________________________________________________________
max_pooling2d_4 (MaxPooling2 (None, 1, 1, 128)         0
_________________________________________________________________
flatten_1 (Flatten)          (None, 128)               0
_________________________________________________________________
output_class (Dense)         (None, 32)                4128
=================================================================
Total params: 484,848
Trainable params: 483,504
Non-trainable params: 1,344
_________________________________________________________________
Model vgg_reduced loaded.
2017-07-13 15:31:04.409047: W c:\tf_jenkins\home\workspace\release-win\device\gpu\os\windows\tensorflow\core\platform\cpu_feature_guard.cc:45] The TensorFlow library wasn't compi
…
