…
Copying 320 training files of Whole-Note...
Copying 40 validation files of Whole-Note...
Copying 40 test files of Whole-Note...
Loading configuration and data-readers...
Found 12170 images belonging to 32 classes.
Found 1515 images belonging to 32 classes.
Found 1515 images belonging to 32 classes.
____________________________________________________________________________________________________
Layer (type)                     Output Shape          Param #     Connected to
====================================================================================================
input_1 (InputLayer)             (None, 112, 112, 3)   0
____________________________________________________________________________________________________
conv2d_1 (Conv2D)                (None, 112, 112, 32)  896         input_1[0][0]
____________________________________________________________________________________________________
batch_normalization_1 (BatchNorm (None, 112, 112, 32)  128         conv2d_1[0][0]
____________________________________________________________________________________________________
activation_1 (Activation)        (None, 112, 112, 32)  0           batch_normalization_1[0][0]
____________________________________________________________________________________________________
conv2d_2 (Conv2D)                (None, 112, 112, 32)  9248        activation_1[0][0]
____________________________________________________________________________________________________
batch_normalization_2 (BatchNorm (None, 112, 112, 32)  128         conv2d_2[0][0]
____________________________________________________________________________________________________
activation_2 (Activation)        (None, 112, 112, 32)  0           batch_normalization_2[0][0]
____________________________________________________________________________________________________
max_pooling2d_1 (MaxPooling2D)   (None, 56, 56, 32)    0           activation_2[0][0]
____________________________________________________________________________________________________
conv2d_3 (Conv2D)                (None, 56, 56, 64)    18496       max_pooling2d_1[0][0]
____________________________________________________________________________________________________
batch_normalization_3 (BatchNorm (None, 56, 56, 64)    256         conv2d_3[0][0]
____________________________________________________________________________________________________
activation_3 (Activation)        (None, 56, 56, 64)    0           batch_normalization_3[0][0]
____________________________________________________________________________________________________
conv2d_4 (Conv2D)                (None, 56, 56, 64)    36928       activation_3[0][0]
____________________________________________________________________________________________________
batch_normalization_4 (BatchNorm (None, 56, 56, 64)    256         conv2d_4[0][0]
____________________________________________________________________________________________________
activation_4 (Activation)        (None, 56, 56, 64)    0           batch_normalization_4[0][0]
____________________________________________________________________________________________________
max_pooling2d_2 (MaxPooling2D)   (None, 28, 28, 64)    0           activation_4[0][0]
____________________________________________________________________________________________________
conv2d_5 (Conv2D)                (None, 28, 28, 128)   73856       max_pooling2d_2[0][0]
____________________________________________________________________________________________________
batch_normalization_5 (BatchNorm (None, 28, 28, 128)   512         conv2d_5[0][0]
____________________________________________________________________________________________________
activation_5 (Activation)        (None, 28, 28, 128)   0           batch_normalization_5[0][0]
____________________________________________________________________________________________________
conv2d_6 (Conv2D)                (None, 28, 28, 128)   147584      activation_5[0][0]
____________________________________________________________________________________________________
batch_normalization_6 (BatchNorm (None, 28, 28, 128)   512         conv2d_6[0][0]
____________________________________________________________________________________________________
activation_6 (Activation)        (None, 28, 28, 128)   0           batch_normalization_6[0][0]
____________________________________________________________________________________________________
conv2d_7 (Conv2D)                (None, 28, 28, 128)   147584      activation_6[0][0]
____________________________________________________________________________________________________
batch_normalization_7 (BatchNorm (None, 28, 28, 128)   512         conv2d_7[0][0]
____________________________________________________________________________________________________
activation_7 (Activation)        (None, 28, 28, 128)   0           batch_normalization_7[0][0]
____________________________________________________________________________________________________
max_pooling2d_3 (MaxPooling2D)   (None, 14, 14, 128)   0           activation_7[0][0]
____________________________________________________________________________________________________
conv2d_8 (Conv2D)                (None, 14, 14, 256)   295168      max_pooling2d_3[0][0]
____________________________________________________________________________________________________
batch_normalization_8 (BatchNorm (None, 14, 14, 256)   1024        conv2d_8[0][0]
____________________________________________________________________________________________________
activation_8 (Activation)        (None, 14, 14, 256)   0           batch_normalization_8[0][0]
____________________________________________________________________________________________________
conv2d_9 (Conv2D)                (None, 14, 14, 256)   590080      activation_8[0][0]
____________________________________________________________________________________________________
batch_normalization_9 (BatchNorm (None, 14, 14, 256)   1024        conv2d_9[0][0]
____________________________________________________________________________________________________
activation_9 (Activation)        (None, 14, 14, 256)   0           batch_normalization_9[0][0]
____________________________________________________________________________________________________
conv2d_10 (Conv2D)               (None, 14, 14, 256)   590080      activation_9[0][0]
____________________________________________________________________________________________________
batch_normalization_10 (BatchNor (None, 14, 14, 256)   1024        conv2d_10[0][0]
____________________________________________________________________________________________________
activation_10 (Activation)       (None, 14, 14, 256)   0           batch_normalization_10[0][0]
____________________________________________________________________________________________________
max_pooling2d_4 (MaxPooling2D)   (None, 7, 7, 256)     0           activation_10[0][0]
____________________________________________________________________________________________________
conv2d_11 (Conv2D)               (None, 7, 7, 512)     1180160     max_pooling2d_4[0][0]
____________________________________________________________________________________________________
batch_normalization_11 (BatchNor (None, 7, 7, 512)     2048        conv2d_11[0][0]
____________________________________________________________________________________________________
activation_11 (Activation)       (None, 7, 7, 512)     0           batch_normalization_11[0][0]
____________________________________________________________________________________________________
conv2d_12 (Conv2D)               (None, 7, 7, 512)     2359808     activation_11[0][0]
____________________________________________________________________________________________________
batch_normalization_12 (BatchNor (None, 7, 7, 512)     2048        conv2d_12[0][0]
____________________________________________________________________________________________________
activation_12 (Activation)       (None, 7, 7, 512)     0           batch_normalization_12[0][0]
____________________________________________________________________________________________________
conv2d_13 (Conv2D)               (None, 7, 7, 512)     2359808     activation_12[0][0]
____________________________________________________________________________________________________
batch_normalization_13 (BatchNor (None, 7, 7, 512)     2048        conv2d_13[0][0]
____________________________________________________________________________________________________
activation_13 (Activation)       (None, 7, 7, 512)     0           batch_normalization_13[0][0]
____________________________________________________________________________________________________
average_pooling2d_1 (AveragePool (None, 3, 3, 512)     0           activation_13[0][0]
____________________________________________________________________________________________________
flatten_1 (Flatten)              (None, 4608)          0           average_pooling2d_1[0][0]
____________________________________________________________________________________________________
output_class (Dense)             (None, 32)            147488      flatten_1[0][0]
____________________________________________________________________________________________________
output_bounding_box (Dense)      (None, 4)             18436       flatten_1[0][0]
====================================================================================================
Total params: 7,987,140
Trainable params: 7,981,380
Non-trainable params: 5,760
____________________________________________________________________________________________________
Model vgg4_with_localization loaded.
2017-08-19 02:09:18.078632: W c:\tf_jenkins\home\workspace\release-win\m\windows-gpu\py\36\tensorflow\core\platform\cpu_feature_guard.cc:45] The TensorFlow library wasn't compiled to use SSE in
…
