…
Copying 320 training files of Whole-Note...
Copying 40 validation files of Whole-Note...
Copying 40 test files of Whole-Note...
Loading configuration and data-readers...
Found 12170 images belonging to 32 classes.
Found 1515 images belonging to 32 classes.
Found 1515 images belonging to 32 classes.
____________________________________________________________________________________________________
Layer (type)                     Output Shape          Param #     Connected to
====================================================================================================
input_1 (InputLayer)             (None, 96, 48, 3)     0
____________________________________________________________________________________________________
conv2d_1 (Conv2D)                (None, 96, 48, 32)    896         input_1[0][0]
____________________________________________________________________________________________________
batch_normalization_1 (BatchNorm (None, 96, 48, 32)    128         conv2d_1[0][0]
____________________________________________________________________________________________________
activation_1 (Activation)        (None, 96, 48, 32)    0           batch_normalization_1[0][0]
____________________________________________________________________________________________________
batch_normalization_2 (BatchNorm (None, 96, 48, 32)    128         activation_1[0][0]
____________________________________________________________________________________________________
activation_2 (Activation)        (None, 96, 48, 32)    0           batch_normalization_2[0][0]
____________________________________________________________________________________________________
conv2d_2 (Conv2D)                (None, 96, 48, 32)    9248        activation_2[0][0]
____________________________________________________________________________________________________
batch_normalization_3 (BatchNorm (None, 96, 48, 32)    128         conv2d_2[0][0]
____________________________________________________________________________________________________
activation_3 (Activation)        (None, 96, 48, 32)    0           batch_normalization_3[0][0]
____________________________________________________________________________________________________
conv2d_3 (Conv2D)                (None, 96, 48, 32)    9248        activation_3[0][0]
____________________________________________________________________________________________________
add_1 (Add)                      (None, 96, 48, 32)    0           conv2d_3[0][0]
                                                                   activation_1[0][0]
____________________________________________________________________________________________________
max_pooling2d_1 (MaxPooling2D)   (None, 48, 24, 32)    0           add_1[0][0]
____________________________________________________________________________________________________
batch_normalization_4 (BatchNorm (None, 48, 24, 32)    128         max_pooling2d_1[0][0]
____________________________________________________________________________________________________
activation_4 (Activation)        (None, 48, 24, 32)    0           batch_normalization_4[0][0]
____________________________________________________________________________________________________
conv2d_4 (Conv2D)                (None, 48, 24, 64)    18496       activation_4[0][0]
____________________________________________________________________________________________________
batch_normalization_5 (BatchNorm (None, 48, 24, 64)    256         conv2d_4[0][0]
____________________________________________________________________________________________________
activation_5 (Activation)        (None, 48, 24, 64)    0           batch_normalization_5[0][0]
____________________________________________________________________________________________________
conv2d_5 (Conv2D)                (None, 48, 24, 64)    36928       activation_5[0][0]
____________________________________________________________________________________________________
conv2d_6 (Conv2D)                (None, 48, 24, 64)    18496       max_pooling2d_1[0][0]
____________________________________________________________________________________________________
add_2 (Add)                      (None, 48, 24, 64)    0           conv2d_5[0][0]
                                                                   conv2d_6[0][0]
____________________________________________________________________________________________________
batch_normalization_6 (BatchNorm (None, 48, 24, 64)    256         add_2[0][0]
____________________________________________________________________________________________________
activation_6 (Activation)        (None, 48, 24, 64)    0           batch_normalization_6[0][0]
____________________________________________________________________________________________________
conv2d_7 (Conv2D)                (None, 48, 24, 64)    36928       activation_6[0][0]
____________________________________________________________________________________________________
batch_normalization_7 (BatchNorm (None, 48, 24, 64)    256         conv2d_7[0][0]
____________________________________________________________________________________________________
activation_7 (Activation)        (None, 48, 24, 64)    0           batch_normalization_7[0][0]
____________________________________________________________________________________________________
conv2d_8 (Conv2D)                (None, 48, 24, 64)    36928       activation_7[0][0]
____________________________________________________________________________________________________
add_3 (Add)                      (None, 48, 24, 64)    0           conv2d_8[0][0]
                                                                   add_2[0][0]
____________________________________________________________________________________________________
max_pooling2d_2 (MaxPooling2D)   (None, 24, 12, 64)    0           add_3[0][0]
____________________________________________________________________________________________________
batch_normalization_8 (BatchNorm (None, 24, 12, 64)    256         max_pooling2d_2[0][0]
____________________________________________________________________________________________________
activation_8 (Activation)        (None, 24, 12, 64)    0           batch_normalization_8[0][0]
____________________________________________________________________________________________________
conv2d_9 (Conv2D)                (None, 24, 12, 128)   73856       activation_8[0][0]
____________________________________________________________________________________________________
batch_normalization_9 (BatchNorm (None, 24, 12, 128)   512         conv2d_9[0][0]
____________________________________________________________________________________________________
activation_9 (Activation)        (None, 24, 12, 128)   0           batch_normalization_9[0][0]
____________________________________________________________________________________________________
conv2d_10 (Conv2D)               (None, 24, 12, 128)   147584      activation_9[0][0]
____________________________________________________________________________________________________
conv2d_11 (Conv2D)               (None, 24, 12, 128)   73856       max_pooling2d_2[0][0]
____________________________________________________________________________________________________
add_4 (Add)                      (None, 24, 12, 128)   0           conv2d_10[0][0]
                                                                   conv2d_11[0][0]
____________________________________________________________________________________________________
batch_normalization_10 (BatchNor (None, 24, 12, 128)   512         add_4[0][0]
____________________________________________________________________________________________________
activation_10 (Activation)       (None, 24, 12, 128)   0           batch_normalization_10[0][0]
____________________________________________________________________________________________________
conv2d_12 (Conv2D)               (None, 24, 12, 128)   147584      activation_10[0][0]
____________________________________________________________________________________________________
batch_normalization_11 (BatchNor (None, 24, 12, 128)   512         conv2d_12[0][0]
____________________________________________________________________________________________________
activation_11 (Activation)       (None, 24, 12, 128)   0           batch_normalization_11[0][0]
____________________________________________________________________________________________________
conv2d_13 (Conv2D)               (None, 24, 12, 128)   147584      activation_11[0][0]
____________________________________________________________________________________________________
add_5 (Add)                      (None, 24, 12, 128)   0           conv2d_13[0][0]
                                                                   add_4[0][0]
____________________________________________________________________________________________________
batch_normalization_12 (BatchNor (None, 24, 12, 128)   512         add_5[0][0]
____________________________________________________________________________________________________
activation_12 (Activation)       (None, 24, 12, 128)   0           batch_normalization_12[0][0]
____________________________________________________________________________________________________
conv2d_14 (Conv2D)               (None, 24, 12, 128)   147584      activation_12[0][0]
____________________________________________________________________________________________________
batch_normalization_13 (BatchNor (None, 24, 12, 128)   512         conv2d_14[0][0]
____________________________________________________________________________________________________
activation_13 (Activation)       (None, 24, 12, 128)   0           batch_normalization_13[0][0]
____________________________________________________________________________________________________
conv2d_15 (Conv2D)               (None, 24, 12, 128)   147584      activation_13[0][0]
____________________________________________________________________________________________________
add_6 (Add)                      (None, 24, 12, 128)   0           conv2d_15[0][0]
                                                                   add_5[0][0]
____________________________________________________________________________________________________
max_pooling2d_3 (MaxPooling2D)   (None, 12, 6, 128)    0           add_6[0][0]
____________________________________________________________________________________________________
batch_normalization_14 (BatchNor (None, 12, 6, 128)    512         max_pooling2d_3[0][0]
____________________________________________________________________________________________________
activation_14 (Activation)       (None, 12, 6, 128)    0           batch_normalization_14[0][0]
____________________________________________________________________________________________________
conv2d_16 (Conv2D)               (None, 12, 6, 256)    295168      activation_14[0][0]
____________________________________________________________________________________________________
batch_normalization_15 (BatchNor (None, 12, 6, 256)    1024        conv2d_16[0][0]
____________________________________________________________________________________________________
activation_15 (Activation)       (None, 12, 6, 256)    0           batch_normalization_15[0][0]
____________________________________________________________________________________________________
conv2d_17 (Conv2D)               (None, 12, 6, 256)    590080      activation_15[0][0]
____________________________________________________________________________________________________
conv2d_18 (Conv2D)               (None, 12, 6, 256)    295168      max_pooling2d_3[0][0]
____________________________________________________________________________________________________
add_7 (Add)                      (None, 12, 6, 256)    0           conv2d_17[0][0]
                                                                   conv2d_18[0][0]
____________________________________________________________________________________________________
batch_normalization_16 (BatchNor (None, 12, 6, 256)    1024        add_7[0][0]
____________________________________________________________________________________________________
activation_16 (Activation)       (None, 12, 6, 256)    0           batch_normalization_16[0][0]
____________________________________________________________________________________________________
conv2d_19 (Conv2D)               (None, 12, 6, 256)    590080      activation_16[0][0]
____________________________________________________________________________________________________
batch_normalization_17 (BatchNor (None, 12, 6, 256)    1024        conv2d_19[0][0]
____________________________________________________________________________________________________
activation_17 (Activation)       (None, 12, 6, 256)    0           batch_normalization_17[0][0]
____________________________________________________________________________________________________
conv2d_20 (Conv2D)               (None, 12, 6, 256)    590080      activation_17[0][0]
____________________________________________________________________________________________________
add_8 (Add)                      (None, 12, 6, 256)    0           conv2d_20[0][0]
                                                                   add_7[0][0]
____________________________________________________________________________________________________
batch_normalization_18 (BatchNor (None, 12, 6, 256)    1024        add_8[0][0]
____________________________________________________________________________________________________
activation_18 (Activation)       (None, 12, 6, 256)    0           batch_normalization_18[0][0]
____________________________________________________________________________________________________
conv2d_21 (Conv2D)               (None, 12, 6, 256)    590080      activation_18[0][0]
____________________________________________________________________________________________________
batch_normalization_19 (BatchNor (None, 12, 6, 256)    1024        conv2d_21[0][0]
____________________________________________________________________________________________________
activation_19 (Activation)       (None, 12, 6, 256)    0           batch_normalization_19[0][0]
____________________________________________________________________________________________________
conv2d_22 (Conv2D)               (None, 12, 6, 256)    590080      activation_19[0][0]
____________________________________________________________________________________________________
add_9 (Add)                      (None, 12, 6, 256)    0           conv2d_22[0][0]
                                                                   add_8[0][0]
____________________________________________________________________________________________________
max_pooling2d_4 (MaxPooling2D)   (None, 6, 3, 256)     0           add_9[0][0]
____________________________________________________________________________________________________
batch_normalization_20 (BatchNor (None, 6, 3, 256)     1024        max_pooling2d_4[0][0]
____________________________________________________________________________________________________
activation_20 (Activation)       (None, 6, 3, 256)     0           batch_normalization_20[0][0]
____________________________________________________________________________________________________
conv2d_23 (Conv2D)               (None, 6, 3, 512)     1180160     activation_20[0][0]
____________________________________________________________________________________________________
batch_normalization_21 (BatchNor (None, 6, 3, 512)     2048        conv2d_23[0][0]
____________________________________________________________________________________________________
activation_21 (Activation)       (None, 6, 3, 512)     0           batch_normalization_21[0][0]
____________________________________________________________________________________________________
conv2d_24 (Conv2D)               (None, 6, 3, 512)     2359808     activation_21[0][0]
____________________________________________________________________________________________________
conv2d_25 (Conv2D)               (None, 6, 3, 512)     1180160     max_pooling2d_4[0][0]
____________________________________________________________________________________________________
add_10 (Add)                     (None, 6, 3, 512)     0           conv2d_24[0][0]
                                                                   conv2d_25[0][0]
____________________________________________________________________________________________________
batch_normalization_22 (BatchNor (None, 6, 3, 512)     2048        add_10[0][0]
____________________________________________________________________________________________________
activation_22 (Activation)       (None, 6, 3, 512)     0           batch_normalization_22[0][0]
____________________________________________________________________________________________________
conv2d_26 (Conv2D)               (None, 6, 3, 512)     2359808     activation_22[0][0]
____________________________________________________________________________________________________
batch_normalization_23 (BatchNor (None, 6, 3, 512)     2048        conv2d_26[0][0]
____________________________________________________________________________________________________
activation_23 (Activation)       (None, 6, 3, 512)     0           batch_normalization_23[0][0]
____________________________________________________________________________________________________
conv2d_27 (Conv2D)               (None, 6, 3, 512)     2359808     activation_23[0][0]
____________________________________________________________________________________________________
add_11 (Add)                     (None, 6, 3, 512)     0           conv2d_27[0][0]
                                                                   add_10[0][0]
____________________________________________________________________________________________________
batch_normalization_24 (BatchNor (None, 6, 3, 512)     2048        add_11[0][0]
____________________________________________________________________________________________________
activation_24 (Activation)       (None, 6, 3, 512)     0           batch_normalization_24[0][0]
____________________________________________________________________________________________________
conv2d_28 (Conv2D)               (None, 6, 3, 512)     2359808     activation_24[0][0]
____________________________________________________________________________________________________
batch_normalization_25 (BatchNor (None, 6, 3, 512)     2048        conv2d_28[0][0]
____________________________________________________________________________________________________
activation_25 (Activation)       (None, 6, 3, 512)     0           batch_normalization_25[0][0]
____________________________________________________________________________________________________
conv2d_29 (Conv2D)               (None, 6, 3, 512)     2359808     activation_25[0][0]
____________________________________________________________________________________________________
add_12 (Add)                     (None, 6, 3, 512)     0           conv2d_29[0][0]
                                                                   add_11[0][0]
____________________________________________________________________________________________________
average_pooling2d_1 (AveragePool (None, 3, 1, 512)     0           add_12[0][0]
____________________________________________________________________________________________________
flatten_1 (Flatten)              (None, 1536)          0           average_pooling2d_1[0][0]
____________________________________________________________________________________________________
output_class (Dense)             (None, 32)            49184       flatten_1[0][0]
====================================================================================================
Total params: 18,823,072
Trainable params: 18,812,576
Non-trainable params: 10,496
____________________________________________________________________________________________________
Model res_net_5 loaded.
2017-07-11 09:59:51.802176: W c:\tf_jenkins\home\workspace\release-win\device\gpu\os\windows\tensorflow\core\platform\cpu_feature_guard.cc:45] The TensorFlow library wasn't compiled to
…
